bot/data.pth (torch, 4631 bytes, 6 tensors)

l1.weight f4 [8, 47]
0	0x3e50ca3d	0.20389648
1	0x3ea60c39	0.324312
2	0x3e6dda07	0.23227702
3	0xbe3be27a	-0.18348113
4	0xbe776c12	-0.2416232
5	0x3bad47af	0.0052880864
6	0x3e1d8676	0.15383324
7	0x3e916080	0.28393936
8	0xbe40d1bd	-0.18830009
9	0x3e0b370c	0.13595217
10	0xbde2dd09	-0.11077315
11	0xbcbf33e6	-0.023340177
12	0xbeb6745f	-0.3563566
13	0x3e17cad7	0.14823471
14	0xbeb675ae	-0.35636657
15	0xbeb679e7	-0.3563988
16	0xbd99fdc8	-0.07519108
17	0x3f003060	0.50073814
18	0x3e2d26d9	0.1690935
19	0x3d93c451	0.07215179
20	0xbdf12723	-0.11775043
21	0xbd6418e3	-0.055687796
22	0xbe289c82	-0.16465953
23	0x3ee8425b	0.45363125
24	0x3e865ab3	0.26241073
25	0x3ee57fd3	0.44824085
26	0xbdb31e7d	-0.087460496
27	0x3e1fcd2b	0.15605609
28	0x3e7ec197	0.24878536
29	0x3e83b272	0.2572208
30	0x3e3f68a9	0.18692268
31	0xbdecaddb	-0.11556598
32	0x3dd1ba8e	0.102406606
33	0x3e401f4e	0.18761942
34	0x3e464bd9	0.19364871
35	0x3eae70f5	0.34070554
36	0x3e222c30	0.15837169
37	0x3de5d5f7	0.11222451
38	0xbe2a598b	-0.1663572
39	0x3e9aa156	0.30201215
40	0x3e9f2430	0.31082296
41	0x3ebd30e8	0.36951375
42	0x3df2945b	0.11844703
43	0x3c2d8f69	0.010593274
44	0x3e58d55a	0.21175137
45	0x3e1da545	0.15395077
46	0x3eabefaa	0.33581287
47	0x3f17885f	0.5919246
48	0x3ef8dcdd	0.48606005
49	0x3e90e479	0.2829931
50	0xb82665e6	-3.9672384e-05
51	0xbe0be697	-0.13662182
52	0xbe5c6638	-0.21523368
53	0x3eda3839	0.4262102
54	0x3e203414	0.15644866
55	0x3e891e27	0.26780817
56	0xbe26e8f6	-0.16299805
57	0x3e67273e	0.22573563
58	0xbe69beb3	-0.22826652
59	0x3e678cb4	0.22612268
60	0x3d6187d2	0.05506117
61	0x3cfef72e	0.031123724
62	0x3e064038	0.13110435
63	0x3e42db95	0.19029076
64	0x3ef66ff0	0.48132277
65	0x3e4eedca	0.20207897
66	0x3e88b234	0.26698458
67	0x3e9e3382	0.30898672
68	0xbe93b13e	-0.28846163
69	0x3eee4fc1	0.46545222
70	0x3e92c679	0.28667048
71	0xbcffbea7	-0.03121884
72	0x3ec5f0fb	0.38660416
73	0x3eb9642a	0.36209232
74	0xbe1fd30b	-0.1560785
75	0x3e8408ed	0.2578806
76	0x3c63006e	0.013855083
77	0x3e89a263	0.26881704
78	0xbe530e03	-0.20610814
79	0xbdfbd00a	-0.1229554
80	0x3e1a3795	0.15060265
81	0x3eb66b28	0.3562863
82	0x3ec20766	0.3789627
83	0x3f8a3c73	1.0799698
84	0x3f30e162	0.69093907
85	0x3e8e1876	0.27753037
86	0x3e7ab414	0.24482757
87	0x3ee6e52c	0.4509672
88	0x3e4f23b4	0.20228463
89	0x3d7fc242	0.062441118
90	0xbb430df4	-0.0029762955
91	0xbb1b7ea5	-0.002372661
92	0x3ec4b983	0.38422784
93	0x3e3dfcf7	0.1855353
94	0xbee7f9a0	-0.45307636
95	0xbf0d4207	-0.55178875
96	0xbdedcd8c	-0.116114706
97	0x3f05dcfb	0.52290314
98	0x3f0e3021	0.5554219
99	0xbf22de43	-0.63620394
100	0xbecc96f8	-0.3995893
101	0xbe2ff5e1	-0.17183639
102	0x3f2f9666	0.68588865
103	0x3f2cfea3	0.67576045
104	0x3ee20b21	0.44149116
105	0xbf22e16f	-0.63625234
106	0x3f4456fc	0.7669523
107	0x3efddbc2	0.49581724
108	0x3f36c0b5	0.713878
109	0x3f492dda	0.7858559
110	0x3e3b5cc1	0.18297102
111	0xbf0e450d	-0.55574113
112	0x3e62d7e6	0.22152671
113	0x3f012552	0.5044757
114	0x3ea4c172	0.32178837
115	0xbefa0566	-0.48832244
116	0xbe07a638	-0.13247001
117	0xbe0a1021	-0.13482715
118	0x3f11a29b	0.5688874
119	0xbe5c1f99	-0.21496429
120	0x3ecffdee	0.4062342
121	0x3f0775e1	0.52914244
122	0xbe68ed9d	-0.22746892
123	0x3f403ec9	0.750958
124	0xbe92c178	-0.2866323
125	0xbf09e2dc	-0.53861785
126	0x3ee31211	0.4434972
127	0x3ea8b292	0.32948738
128	0xbf3496f6	-0.7054285
129	0xbe463b1b	-0.19358484
130	0xbf22e076	-0.6362375
131	0xbecef1e6	-0.4041893
132	0x3f0be762	0.5464994
133	0xbe61f5fb	-0.2206649
134	0xbd9f1628	-0.07767898
135	0xbe19fbaa	-0.15037408
136	0x3f0b5515	0.544267
137	0x3ebc8ca8	0.36826062
138	0xbe12757c	-0.14302629
139	0x3ed85be2	0.422576
140	0xbecc85f4	-0.39945948
141	0xbe3a2173	-0.18176822
142	0xbe9ecb23	-0.31014356
143	0xbe0af2cd	-0.13569184
144	0x3f130fe8	0.57446146
145	0x3f065d7e	0.5248641
146	0xbc432a22	-0.011911901
147	0xbef3a78b	-0.47588763
148	0xbe4c01d4	-0.19922572
149	0x3f233a15	0.637605
150	0xbe3ee8c1	-0.18643476
151	0x3f18c0b8	0.59669065
152	0xbcefd956	-0.029278439
153	0x3f559e9d	0.8344515
154	0x3d2ea4eb	0.042637747
155	0x3f2413e2	0.6409284
156	0x3f3804dd	0.7188242
157	0x3eff0298	0.49806666
158	0xbeee43ca	-0.46536094
159	0x3eb4e3a4	0.35329926
160	0xbeb438c4	-0.3519956
161	0xbeb4769c	-0.35246742
162	0xbd9759b6	-0.07390158
163	0xbdc33e62	-0.09533383
164	0xbdef4de3	-0.116847776
165	0x3d1a0143	0.03759886
166	0xbe238ab0	-0.15970874
167	0xbe8354dd	-0.25650683
168	0xbe7c8263	-0.24659114
169	0xbe4c61b0	-0.1995914
170	0x3de05a84	0.109547645
171	0xbea8e1bb	-0.3298472
172	0xbd007b7c	-0.031367764
173	0x3d769244	0.060198084
174	0xbe330d28	-0.17485487
175	0xbccb6c37	-0.024831874
176	0xbe820dea	-0.2540124
177	0xbf2b112b	-0.6682307
178	0x3bb568a8	0.0055361576
179	0x3ea3fd26	0.32029074
180	0xbd97436a	-0.07385905
181	0xbe50cac4	-0.20389849
182	0x3da500c3	0.08056786
183	0xbf026283	-0.50931567
184	0xbcead506	-0.02866603
185	0xbd7e771b	-0.062125307
186	0x3dfe9717	0.12431162
187	0xbe0899a6	-0.13339862
188	0xbe9439fe	-0.28950495
189	0x3e16ee56	0.14739355
190	0x3e756b7e	0.23966786
191	0xbec49e59	-0.3840206
192	0xbe84efa4	-0.2596408
193	0x3f4b012b	0.7929866
194	0x3eaecca6	0.3414051
195	0x3da9c13e	0.08288811
196	0xbeb00032	-0.3437515
197	0x3ee70f2b	0.4512876
198	0xbe80f8a0	-0.25189686
199	0x3f5a438b	0.8525931
200	0xbf1380d1	-0.57618433
201	0x3e40a3a7	0.18812428
202	0xbf11fc29	-0.5702539
203	0xbf124274	-0.5713265
204	0xbe9f6d3c	-0.31138027
205	0x3ed58a26	0.4170696
206	0xbdd8943d	-0.10575149
207	0x3e9d0b70	0.3067279
208	0x3efecfb6	0.49767846
209	0x3ed62982	0.41828543
210	0xbd8b15a1	-0.06791235
211	0x3e877270	0.26454496
212	0x3f071413	0.52765006
213	0x3e1fb24e	0.15595362
214	0x3ee075e6	0.4383995
215	0x3ebabc59	0.36471823
216	0x3e158f24	0.14605385
217	0x3ef6525d	0.48109713
218	0x3e308328	0.17237532
219	0x3f08208b	0.53174657
220	0x3e8a3e01	0.2700043
221	0x3e645341	0.22297384
222	0x3df1bf56	0.118040726
223	0x3e5e30f5	0.21698363
224	0xbf1d6505	-0.6148227
225	0xbe7192fd	-0.23591228
226	0x3d2bdab7	0.04195663
227	0x3e5b5715	0.21419938
228	0x3e5d1a04	0.21591955
229	0x3e4519bd	0.192481
230	0x3f0a94b1	0.54133135
231	0x3ec25eb0	0.37962866
232	0x3e93dce6	0.2887947
233	0x3e25d8da	0.16196004
234	0x3e9561c2	0.29176146
235	0x3f02ff2a	0.511706
236	0x3e88fd38	0.2675569
237	0xbd57e673	-0.052710008
238	0x3ebd0821	0.36920264
239	0x3e545511	0.20735575
240	0x3ebdf1d5	0.37098566
241	0xbf09aacb	-0.53776234
242	0xbd6005c5	-0.054693002
243	0x3ed04d03	0.40683755
244	0xbebce847	-0.36895964
245	0x3ed01bdc	0.40646255
246	0x3eb09ca0	0.34494495
247	0x3f2bc100	0.6709137
248	0x3e594806	0.21218881
249	0x3ee448b6	0.44586724
250	0x3f049c72	0.51801217
251	0x3e438b66	0.19096145
252	0xbee650c5	-0.44983497
253	0x3e6ea598	0.23305357
254	0xbe96a88f	-0.29425475
255	0xbe5eb7f7	-0.21749865

l1.bias f4 [8]
0	0x3eb68344	0.35647023
1	0x3f0b54c1	0.544262
2	0x3f22e15e	0.63625133
3	0x3f260d10	0.6486368
4	0x3f18cb56	0.59685266
5	0x3f571be2	0.8402692
6	0x3f0b461e	0.54403865
7	0x3f3e8896	0.74427164

l2.weight f4 [8, 8]
0	0x3f15e842	0.5855752
1	0x3f1a21d9	0.602079
2	0xbe3654a7	-0.1780573
3	0xbe74e031	-0.23913647
4	0xbe40e2ac	-0.18836468
5	0xbf6838ad	-0.9071148
6	0x3ea525bf	0.3225536
7	0x3df56ee5	0.11984042
8	0x3f0a56c9	0.54038674
9	0x3f36640a	0.712464
10	0xbf80ee81	-1.0072786
11	0xbf05f059	-0.52319866
12	0x3f3f6231	0.74759203
13	0x3ed6038d	0.41799584
14	0x3f6102f6	0.87895143
15	0x3f4b758d	0.79476243
16	0xbf020f9f	-0.50805086
17	0x3f7ff12b	0.9997737
18	0x3f0e4012	0.55566514
19	0x3f719407	0.94366497
20	0xbf69d04f	-0.9133348
21	0x3fa1ccab	1.2640585
22	0xbf804375	-1.0020586
23	0x3f858680	1.0431671
24	0x3dba7106	0.09103589
25	0x3ce8984d	0.028392935
26	0x3db9bc71	0.090691455
27	0xbddb82cf	-0.10718309
28	0xbe2454f3	-0.1604803
29	0xbe15095f	-0.14554356
30	0x3e605c53	0.21910219
31	0xbdf9f4fb	-0.122049294
32	0x3f7660fa	0.96241724
33	0x3f952592	1.165209
34	0x3e22d384	0.15901
35	0xbf3d33bc	-0.73907065
36	0xbdcd2673	-0.10017099
37	0xbd61b464	-0.055103675
38	0xbe62544f	-0.22102474
39	0x3f11ac2d	0.56903344
40	0x3f38abe2	0.7213727
41	0x3f1d8993	0.61538047
42	0xbee16cac	-0.44028223
43	0xbefc6907	-0.4929888
44	0x3df7d4e8	0.121011555
45	0xbf38c2dc	-0.7217233
46	0x3f054cb9	0.52070194
47	0x3d8ac395	0.067755856
48	0x3f1f0a71	0.6212531
49	0x3e48e4c0	0.19618511
50	0x3f8c3d9b	1.09563
51	0x3f2aedc2	0.6676904
52	0x3f3991a6	0.72487867
53	0xbd1a9d60	-0.03774774
54	0x3f56d460	0.8391781
55	0xbece7330	-0.40322256
56	0x3ec62e4c	0.38707197
57	0x3f183795	0.5945981
58	0x3f79f30e	0.976365
59	0xbecde4d0	-0.40213633
60	0x3f1fe141	0.62453085
61	0xbf2ba198	-0.6704345
62	0x3eade2a5	0.3396198
63	0xbf2e0f4a	-0.6799208

l2.bias f4 [8]
0	0xbdd3847f	-0.10328006
1	0x3ed84b6d	0.42245045
2	0x3f298273	0.66214675
3	0xbeb56158	-0.3542583
4	0xbe837b99	-0.25680235
5	0xbe339e47	-0.17540847
6	0x3f2cd8b6	0.67518175
7	0x3bfb5f6b	0.007671287

l3.weight f4 [5, 8]
0	0x3f29c439	0.66315037
1	0x3e37ad38	0.17937171
2	0xbf57f68c	-0.84360576
3	0xbd4b1cfa	-0.04958818
4	0x3e23e2f8	0.1600455
5	0x3f3de389	0.74175316
6	0xbe8f2785	-0.27959839
7	0xbe40b674	-0.188196
8	0xbf258a68	-0.64664316
9	0x3f8a3437	1.0797185
10	0xbe871739	-0.26384905
11	0x3e56c8e9	0.20975079
12	0xbfc067f9	-1.503173
13	0xbfb35da9	-1.4012958
14	0x3e4400db	0.19140951
15	0xbf75abe6	-0.9596542
16	0xbf1c0ceb	-0.6095721
17	0xbfa7c5fd	-1.3107296
18	0x3f5d59cd	0.8646515
19	0x3e25ad5f	0.16179417
20	0xbf7e5df5	-0.9936212
21	0xbebd98c0	-0.37030602
22	0x3ec93b16	0.39302891
23	0xbf89c39a	-1.0762818
24	0xbf6b166e	-0.918311
25	0xbf96f077	-1.1792134
26	0xbf54f7bf	-0.8319053
27	0x3dba8978	0.09108251
28	0x3eae13da	0.3399952
29	0xbf621976	-0.883201
30	0x3f1afc28	0.6054101
31	0x3ef98a91	0.4873853
32	0xbf445a1a	-0.76699984
33	0x3ec9dca8	0.3942616
34	0x3ee60e82	0.44932944
35	0x3dbdba03	0.092639945
36	0x3f68bcbe	0.90913
37	0xbf7fb624	-0.998873
38	0xbf9df886	-1.2341468
39	0xbf4a6d0f	-0.7907266

l3.bias f4 [5]
0	0xbf049eb3	-0.51804656
1	0x3e86bf35	0.26317754
2	0x3d1240b0	0.035706222
3	0xbdb216b7	-0.08695739
4	0xbf0f6bec	-0.5602405
